…
26 19:50:45.565470: I tensorflow/compiler/xla/service/service.cc:168] XLA service 0x55d85e9d19f0 initialized for platform Host (this does not guarantee that XLA will be used). Devices: 2021-07-26 19:50:45.565492: I tensorflow/compiler/xla/service/service.cc:176] StreamExecutor device (0): Host, Default Version 2021-07-26 19:50:45.565578: I tensorflow/core/common_runtime/process_util.cc:147] Creating new thread pool with default inter op setting: 2. Tune using inter_op_parallelism_threads for best performance. Model: \"model\" Layer (type) Output Shape Param # Connected to img_in (InputLayer) [(None, 224, 224, 3) 0 conv2d_1 (Conv2D) (None, 110, 110, 24) 1824 img_in[0][0] dropout (Dropout) (None, 110, 110, 24) 0 conv2d_1[0][0] conv2d_2 (Conv2D) (None, 53, 53, 32) 19232 dropout[0][0] dropout_1 (Dropout) (None, 53, 53, 32) 0 conv2d_2[0][0] conv2d_3 (Conv2D) (None, 25, 25, 64) 51264 dropout_1[0][0] dropout_2 (Dropout) (None, 25, 25, 64) 0 conv2d_3[0][0] conv2d_4 (Conv2D) (None, 23, 23, 64) 36928 dropout_2[0][0] dropout_3 (Dropout) (None, 23, 23, 64) 0 conv2d_4[0][0] conv2d_5 (Conv2D) (None, 21, 21, 64) 36928 dropout_3[0][0] dropout_4 (Dropout) (None, 21, 21, 64) 0 conv2d_5[0][0] flattened (Flatten) (None, 28224) 0 dropout_4[0][0] dense_1 (Dense) (None, 100) 2822500 flattened[0][0] dropout_5 (Dropout) (None, 100) 0 dense_1[0][0] dense_2 (Dense) (None, 50) 5050 dropout_5[0][0] dropout_6 (Dropout) (None, 50) 0 dense_2[0][0] n_outputs0 (Dense) (None, 1) 51 dropout_6[0][0] n_outputs1 (Dense) (None, 1) 51 dropout_6[0][0] Total params: 2,973,828 Trainable params: 2,973,828 Non-trainable params: 0 None Using catalog /home/arl/mycar/data/msp-car-1/catalog_17.catalog Records # Training 1265 Records # Validation 317 Epoch 1/100 10/10 [==============================] - ETA: 0s - loss: 1.0885 - n_outputs0_loss: 0.5975 - n_outputs1_loss: 0.4909 Epoch 00001: val_loss improved from inf to 0.54341, saving mo
…
x55d85e9d19f0 initialized for platform Host (this does not guarantee that XLA will be used). Devices: 2021-07-26 19:50:45.565492: I tensorflow/compiler/xla/service/service.cc:176] StreamExecutor device (0): Host, Default Version 2021-07-26 19:50:45.565578: I tensorflow/core/common_runtime/process_util.cc:147] Creating new thread pool with default inter op setting: 2. Tune using inter_op_parallelism_threads for best performance. Model: \"model\"","title":"Training Log for MSP Car #1"},{"location":"training-logs/msp-1-cpu/#layer-type-output-shape-param-connected-to","text":"img_in (InputLayer) [(None, 224, 224, 3) 0 conv2d_1 (Conv2D) (None, 110, 110, 24) 1824 img_in[0][0] dropout (Dropout) (None, 110, 110, 24) 0 conv2d_1[0][0] conv2d_2 (Conv2D) (None, 53, 53, 32) 19232 dropout[0][0] dropout_1 (Dropout) (None, 53, 53, 32) 0 conv2d_2[0][0] conv2d_3 (Conv2D) (None, 25, 25, 64) 51264 dropout_1[0][0] dropout_2 (Dropout) (None, 25, 25, 64) 0 conv2d_3[0][0] conv2d_4 (Conv2D) (None, 23, 23, 64) 36928 dropout_2[0][0] dropout_3 (Dropout) (None, 23, 23, 64) 0 conv2d_4[0][0] conv2d_5 (Conv2D) (None, 21, 21, 64) 36928 dropout_3[0][0] dropout_4 (Dropout) (None, 21, 21, 64) 0 conv2d_5[0][0] flattened (Flatten) (None, 28224) 0 dropout_4[0][0] dense_1 (Dense) (None, 100) 2822500 flattened[0][0] dropout_5 (Dropout) (None, 100) 0 dense_1[0][0] dense_2 (Dense) (None, 50) 5050 dropout_5[0][0] dropout_6 (Dropout) (None, 50) 0 dense_2[0][0] n_outputs0 (Dense) (None, 1) 51 dropout_6[0][0]","title":"Layer (type)                    Output Shape         Param #     Connected to"},{"location":"training-logs/msp-1-cpu/#n_outputs1-dense-none-1-51-dropout_600","text":"Total params: 2,973,828 Trainable params: 2,973,828 Non-trainable params: 0 None Using catalog /home/arl/mycar/data/msp-car-1/catalog_17.catalog Records # Training 1265 Records # Validation 317 Epoch 1/100 1
…
