…
 initialized for platform CUDA (this does not guarantee that XLA will be used). Devices:\n2021-07-26 21:05:34.370693: I tensorflow/compiler/xla/service/service.cc:176]   StreamExecutor device (0): NVIDIA GeForce RTX 2080 Ti, Compute Capability 7.5\nModel: \"model\"\n__________________________________________________________________________________________________\nLayer (type)                    Output Shape         Param #     Connected to                     \n==================================================================================================\nimg_in (InputLayer)             [(None, 224, 224, 3) 0                                            \n__________________________________________________________________________________________________\nconv2d_1 (Conv2D)               (None, 110, 110, 24) 1824        img_in[0][0]                     \n__________________________________________________________________________________________________\ndropout (Dropout)               (None, 110, 110, 24) 0           conv2d_1[0][0]                   \n__________________________________________________________________________________________________\nconv2d_2 (Conv2D)               (None, 53, 53, 32)   19232       dropout[0][0]                    \n__________________________________________________________________________________________________\ndropout_1 (Dropout)             (None, 53, 53, 32)   0           conv2d_2[0][0]                   \n__________________________________________________________________________________________________\nconv2d_3 (Conv2D)               (None, 25, 25, 64)   51264       dropout_1[0][0]                  \n__________________________________________________________________________________________________\ndropout_2 (Dropout)             (None, 25, 25, 64)   0           conv2d_3[0][0]                   \n__________________________________________________________________________________________________\nconv2d_4 (Conv2D)               (None, 23, 23, 64)   36928       dropout_2[0][0]                  \n__________________________________________________________________________________________________\ndropout_3 (Dropout)             (None, 23, 23, 64)   0           conv2d_4[0][0]                   \n__________________________________________________________________________________________________\nconv2d_5 (Conv2D)               (None, 21, 21, 64)   36928       dropout_3[0][0]                  \n__________________________________________________________________________________________________\ndropout_4 (Dropout)             (None, 21, 21, 64)   0           conv2d_5[0][0]                   \n__________________________________________________________________________________________________\nflattened (Flatten)             (None, 28224)        0           dropout_4[0][0]                  \n__________________________________________________________________________________________________\ndense_1 (Dense)                 (None, 100)          2822500     flattened[0][0]                  \n__________________________________________________________________________________________________\ndropout_5 (Dropout)             (None, 100)          0           dense_1[0][0]                    \n__________________________________________________________________________________________________\ndense_2 (Dense)                 (None, 50)           5050        dropout_5[0][0]                  \n__________________________________________________________________________________________________\ndropout_6 (Dropout)             (None, 50)           0           dense_2[0][0]                    \n__________________________________________________________________________________________________\nn_outputs0 (Dense)              (None, 1)            51          dropout_6[0][0]                  \n__________________________________________________________________________________________________\nn_outputs1 (Dense)              (None, 1)            51          dropout_6[0][0]                  \n==================================================================================================\nTotal params: 2,973,828\nTrainable params: 2,973,828\nNon-trainable params: 0\n__________________________________________________________________________________________________\nNone\nUsing catalog /home/arl/mycar/data/dans-basement/catalog_7.catalog\n\n
…
